…
X X X X X X X X X X X X rider in a foggycityscapes image.', 'X X X X X X X X X X X X X X X X car in a foggycityscapes image.', 'X X X X X X X X X X X X X X X X truck in a foggycityscapes image.', 'X X X X X X X X X X X X X X X X bus in a foggycityscapes image.', 'X X X X X X X X X X X X X X X X train in a foggycityscapes image.', 'X X X X X X X X X X X X X X X X motorcycle in a foggycityscapes image.', 'X X X X X X X X X X X X X X X X bicycle in a foggycityscapes image.']
[09/07 11:53:13 d2.engine.defaults]: Model:
CLIPFastRCNN(
  (offline_backbone): ResNet(
    (stem): BasicStem(
      (conv1): Conv2d(
        3, 64, kernel_size=(7, 7), stride=(2, 2), padding=(3, 3), bias=False
        (norm): FrozenBatchNorm2d(num_features=64, eps=1e-05)
      )
    )
    (res2): Sequential(
      (0): BottleneckBlock(
        (shortcut): Conv2d(
          64, 256, kernel_size=(1, 1), stride=(1, 1), bias=False
          (norm): FrozenBatchNorm2d(num_features=256, eps=1e-05)
        )
        (conv1): Conv2d(
          64, 64, kernel_size=(1, 1), stride=(1, 1), bias=False
          (norm): FrozenBatchNorm2d(num_features=64, eps=1e-05)
        )
        (conv2): Conv2d(
          64, 64, kernel_size=(3, 3), stride=(1, 1), padding=(1, 1), bias=False
          (norm): FrozenBatchNorm2d(num_features=64, eps=1e-05)
        )
        (conv3): Conv2d(
          64, 256, kernel_size=(1, 1), stride=(1, 1), bias=False
          (norm): FrozenBatchNorm2d(num_features=256, eps=1e-05)
        )
      )
      (1): BottleneckBlock(
        (conv1): Conv2d(
          256, 64, kernel_size=(1, 1), stride=(1, 1), bias=False
          (norm): FrozenBatchNorm2d(num_features=64, eps=1e-05)
        )
        (conv2): Conv2d(
          64, 64, kernel_size=(3, 3), stride=(1, 1), padding=(1, 1), bias=False
          (norm): FrozenBatchNorm2d(num_features=64, eps=1e-05)
        )
        (conv3): Conv2d(
          64, 256, kernel_size=(1, 1), stride=(1, 1), bias=False
          (norm): FrozenBatchNorm2d(num_features=256, eps=1e-05)
        )
      )
      (2): BottleneckBlock(
        (conv1): Conv2d(
          256, 64, kernel_size=(1, 1), stride=(1, 1), bias=False
          (norm): FrozenBatchNorm2d(num_features=64, eps=1e-05)
        )
        (conv2): Conv2d(
          64, 64, kernel_size=(3, 3), stride=(1, 1), padding=(1, 1), bias=False
          (norm): FrozenBatchNorm2d(num_features=64, eps=1e-05)
        )
        (conv3): Conv2d(
          64, 256, kernel_size=(1, 1), stride=(1, 1), bias=False
          (norm): FrozenBatchNorm2d(num_features=256, eps=1e-05)
        )
      )
    )
    (res3): Sequential(
      (0): BottleneckBlock(
        (shortcut): Conv2d(
          256, 512, kernel_size=(1, 1), stride=(2, 2), bias=False
          (norm): FrozenBatchNorm2d(num_features=512, eps=1e-05)
        )
        (conv1): Conv2d(
          256, 128, kernel_size=(1, 1), stride=(2, 2), bias=False
          (norm): FrozenBatchNorm2d(num_features=128, eps=1e-05)
        )
        (conv2): Conv2d(
          128, 128, kernel_size=(3, 3), stride=(1, 1), padding=(1, 1), bias=False
          (norm): FrozenBatchNorm2d(num_features=128, eps=1e-05)
        )
        (conv3): Conv2d(
          128, 512, kernel_size=(1, 1), stride=(1, 1), bias=False
          (norm): FrozenBatchNorm2d(num_features=512, eps=1e-05)
        )
      )
      (1): BottleneckBlock(
        (conv1): Conv2d(
          512, 128, kernel_size=(1, 1), stride=(1, 1), bias=False
          (norm): FrozenBatchNorm2d(num_features=128, eps=1e-05)
        )
        (conv2): Conv2d(
          128, 128, kernel_size=(3, 3), stride=(1, 1), padding=(1, 1), bias=False
          (norm): FrozenBatchNorm2d(num_features=128, eps=1e-05)
        )
        (conv3): Conv2d(
          128, 512, kernel_size=(1, 1), stride=(1, 1), bias=False
          (norm): FrozenBatchNorm2d(num_features=512, eps=1e-05)
        )
      )
      (2): BottleneckBlock(
        (conv1): Conv2d(
          512, 128, kernel_size=(1, 1), stride=(1, 1), bias=False
          (norm): FrozenBatchNorm2d(num_features=128, eps=1e-05)
        )
        (conv2): Conv2d(
          128, 128, kernel_size=(3, 3), stride=(1, 1), padding=(1, 1), bias=False
          (norm): FrozenBatchNorm2d(num_features=128, eps=1e-05)
        )
        (conv3): Conv2d(
          128, 512, kernel_size=(1, 1), stride=(1, 1), bias=False
          (norm): FrozenBatchNorm2d(num_features=512, eps=1e-05)
        )
      )
      (3): BottleneckBlock(
        (conv1): Conv2d(
          512, 128, kernel_size=(1, 1), stride=(1, 1), bias=False
          (norm): FrozenBatchNorm2d(num_features=128, eps=1e-05)
        )
        (conv2): Conv2d(
          128, 128, kernel_size=(3, 3), stride=(1, 1), padding=(1, 1), bias=False
          (norm): FrozenBatchNorm2d(num_features=128, eps=1e-05)
        )
        (conv3): Conv2d(
          128, 512, kernel_size=(1, 1), stride=(1, 1), bias=False
          (norm): FrozenBatchNorm2d(num_features=512, eps=1e-05)
        )
      )
    )
    (res4): Sequential(
      (0): BottleneckBlock(
        (shortcut): Conv2d(
          512, 1024, kernel_size=(1, 1), stride=(2, 2), bias=False
          (norm): FrozenBatchNorm2d(num_features=1024, eps=1e-05)
        )
        (conv1): Conv2d(
          512, 256, kernel_size=(1, 1), stride=(2, 2), bias=False
          (norm): FrozenBatchNorm2d(num_features=256, eps=1e-05)
        )
        (conv2): Conv2d(
          256, 256, kernel_size=(3, 3), stride=(1, 1), padding=(1, 1), bias=False
          (norm): FrozenBatchNorm2d(num_features=256, eps=1e-05)
        )
        (conv3): Conv2d(
          256, 1024, kernel_size=(1, 1), stride=(1, 1), bias=False
          (norm): FrozenBatchNorm2d(num_features=1024, eps=1e-05)
        )
      )
      (1): BottleneckBlock(
        (conv1): Conv2d(
          1024, 256, kernel_size=(1, 1), stride=(1, 1), bias=False
          (norm): FrozenBatchNorm2d(num_features=256, eps=1e-05)
        )
        (conv2): Conv2d(
          256, 256, kernel_size=(3, 3), stride=(1, 1), padding=(1, 1), bias=False
          (norm): FrozenBatchNorm2d(num_features=256, eps=1e-05)
        )
        (conv3): Conv2d(
          256, 1024, kernel_size=(1, 1), stride=(1, 1), bias=False
          (norm): FrozenBatchNorm2d(num_features=1024, eps=1e-05)
        )
      )
      (2): BottleneckBlock(
        (conv1): Conv2d(
          1024, 256, kernel_size=(1, 1), stride=(1, 1), bias=False
          (norm): FrozenBatchNorm2d(num_features=256, eps=1e-05)
        )
        (conv2): Conv2d(
          256, 256, kernel_size=(3, 3), stride=(1, 1), padding=(1, 1), bias=False
          (norm): FrozenBatchNorm2d(num_features=256, eps=1e-05)
        )
        (conv3): Conv2d(
          256, 1024, kernel_size=(1, 1), stride=(1, 1), bias=False
          (norm): FrozenBatchNorm2d(num_features=1024, eps=1e-05)
        )
      )
      (3): BottleneckBlock(
        (conv1): Conv2d(
          1024, 256, kernel_size=(1, 1), stride=(1, 1), bias=False
          (norm): FrozenBatchNorm2d(num_features=256, eps=1e-05)
        )
        (conv2): Conv2d(
          256, 256, kernel_size=(3, 3), stride=(1, 1), padding=(1, 1), bias=False
          (norm): FrozenBatchNorm2d(num_features=256, eps=1e-05)
        )
        (conv3): Conv2d(
          256, 1024, kernel_size=(1, 1), stride=(1, 1), bias=False
          (norm): FrozenBatchNorm2d(num_features=1024, eps=1e-05)
        )
      )
      (4): BottleneckBlock(
        (conv1): Conv2d(
          1024, 256, kernel_size=(1, 1), stride=(1, 1), bias=False
          (norm): FrozenBatchNorm2d(num_features=256, eps=1e-05)
        )
        (conv2): Conv2d(
          256, 256, kernel_size=(3, 3), stride=(1, 1), padding=(1, 1), bias=False
          (norm): FrozenBatchNorm2d(num_features=256, eps=1e-05)
        )
        (conv3): Conv2d(
          256, 1024, kernel_size=(1, 1), stride=(1, 1), bias=False
          (norm): FrozenBatchNorm2d(num_features=1024, eps=1e-05)
        )
      )
      (5): BottleneckBlock(
        (conv1): Conv2d(
          1024, 256, kernel_size=(1, 1), stride=(1, 1), bias=False
          (norm): FrozenBatchNorm2d(num_features=256, eps=1e-05)
        )
        (conv2): Conv2d(
          256, 256, kernel_size=(3, 3), stride=(1, 1), padding=(1, 1), bias=False
          (norm): FrozenBatchNorm2d(num_features=256, eps=1e-05)
        )
        (conv3): Conv2d(
          256, 1024, kernel_size=(1, 1), stride=(1, 1), bias=False
          (norm): FrozenBatchNorm2d(num_features=1024, eps=1e-05)
        )
      )
    )
  )
  (backbone): ModifiedResNet(
    (conv1): Conv2d(3, 32, kernel_size=(3, 3), stride=(2, 2), padding=(1, 1), bias=False)
    (bn1): FrozenBatchNorm2d(num_features=32, eps=1e-05)
    (conv2): Conv2d(32, 32, kernel_size=(3, 3), stride=(1, 1), padding=(1, 1), bias=False)
    (bn2): FrozenBatchNorm2d(num_features=32, eps=1e-05)
    (conv3): Conv2d(32, 64, kernel_size=(3, 3), stride=(1, 1), padding=(1, 1), bias=False)
    (bn3): FrozenBatchNorm2d(num_features=64, eps=1e-05)
    (avgpool): AvgPool2d(kernel_size=2, stride=2, padding=0)
    (relu): ReLU(inplace=True)
    (layer1): Sequential(
      (0): Bottleneck(
        (conv1): Conv2d(64, 64, kernel_size=(1, 1), stride=(1, 1), bias=False)
        (bn1): FrozenBatchNorm2d(num_features=64, eps=1e-05)
        (conv2): Conv2d(64, 64, kernel_size=(3, 3), stride=(1, 1), padding=(1, 1), bias=False)
        (bn2): FrozenBatchNorm2d(num_features=64, eps=1e-05)
        (avgpool): Identity()
        (conv3): Conv2d(64, 256, kernel_size=(1, 1), stride=(1, 1), bias=False)
        (bn3): FrozenBatchNorm2d(num_features=256, eps=1e-05)
        (relu): ReLU(inplace=True)
        (downsample): Sequential(
          (-1): AvgPool2d(kernel_size=1, stride=1, padding=0)
          (0): Conv2d(64, 256, kernel_size=(1, 1), stride=(1, 1), bias=False)
          (1): FrozenBatchNorm2d(num_features=256, eps=1e-05)
        )
      )
      (1): Bottleneck(
        (conv1): Conv2d(256, 64, kernel_size=(1, 1), stride=(1, 1), bias=False)
        (bn1): FrozenBatchNorm2d(num_features=64, eps=1e-05)
        (conv2): Conv2d(64, 64, kernel_size=(3, 3), stride=(1, 1), padding=(1, 1), bias=False)
        (bn2): FrozenBatchNorm2d(num_features=64, eps=1e-05)
        (avgpool): Identity()
        (conv3): Conv2d(64, 256, kernel_size=(1, 1), stride=(1, 1), bias=False)
        (bn3): FrozenBatchNorm2d(num_features=256, eps=1e-05)
        (relu): ReLU(inplace=True)
      )
      (2): Bottleneck(
        (conv1): Conv2d(256, 64, kernel_size=(1, 1), stride=(1, 1), bias=False)
        (bn1): FrozenBatchNorm2d(num_features=64, eps=1e-05)
        (conv2): Conv2d(64, 64, kernel_size=(3, 3), stride=(1, 1), padding=(1, 1), bias=False)
        (bn2): FrozenBatchNorm2d(num_features=64, eps=1e-05)
        (avgpool): Identity()
        (conv3): Conv2d(64, 256, kernel_size=(1, 1), stride=(1, 1), bias=False)
        (bn3): FrozenBatchNorm2d(num_features=256, eps=1e-05)
        (relu): ReLU(inplace=True)
      )
    )
    (layer2): Sequential(
      (0): Bottleneck(
        (conv1): Conv2d(256, 128, kernel_size=(1, 1), stride=(1, 1), bias=False)
        (bn1): FrozenBatchNorm2d(num_features=128, eps=1e-05)
        (conv2): Conv2d(128, 128, kernel_size=(3, 3), stride=(1, 1), padding=(1, 1), bias=False)
        (bn2): FrozenBatchNorm2d(num_features=128, eps=1e-05)
        (avgpool): AvgPool2d(kernel_size=2, stride=2, padding=0)
        (conv3): Conv2d(128, 512, kernel_size=(1, 1), stride=(1, 1), bias=False)
        (bn3): FrozenBatchNorm2d(num_features=512, eps=1e-05)
        (relu): ReLU(inplace=True)
        (downsample): Sequential(
          (-1): AvgPool2d(kernel_size=2, stride=2, padding=0)
          (0): Conv2d(256, 512, kernel_size=(1, 1), stride=(1, 1), bias=False)
          (1): FrozenBatchNorm2d(num_features=512, eps=1e-05)
        )
      )
      (1): Bottleneck(
        (conv1): Conv2d(512, 128, kernel_size=(1, 1), stride=(1, 1), bias=False)
        (bn1): FrozenBatchNorm2d(num_features=128, eps=1e-05)
        (conv2): Conv2d(128, 128, kernel_size=(3, 3), stride=(1, 1), padding=(1, 1), bias=False)
        (bn2): FrozenBatchNorm2d(num_features=128, eps=1e-05)
        (avgpool): Identity()
        (conv3): Conv2d(128, 512, kernel_size=(1, 1), stride=(1, 1), bias=False)
        (bn3): FrozenBatchNorm2d(num_features=512, eps=1e-05)
        (relu): ReLU(inplace=True)
      )
      (2): Bottleneck(
        (conv1): Conv2d(512, 128, kernel_size=(1, 1), stride=(1, 1), bias=False)
        (bn1): FrozenBatchNorm2d(num_features=128, eps=1e-05)
        (conv2): Conv2d(128, 128, kernel_size=(3, 3), stride=(1, 1), padding=(1, 1), bias=False)
        (bn2): FrozenBatchNorm2d(num_features=128, eps=1e-05)
        (avgpool): Identity()
        (conv3): Conv2d(128, 512, kernel_size=(1, 1), stride=(1, 1), bias=False)
        (bn3): FrozenBatchNorm2d(num_features=512, eps=1e-05)
        (relu): ReLU(inplace=True)
      )
      (3): Bottleneck(
        (conv1): Conv2d(512, 128, kernel_size=(1, 1), stride=(1, 1), bias=False)
        (bn1): FrozenBatchNorm2d(num_features=128, eps=1e-05)
        (conv2): Conv2d(128, 128, kernel_size=(3, 3), stride=(1, 1), padding=(1, 1), bias=False)
        (bn2): FrozenBatchNorm2d(num_features=128, eps=1e-05)
        (avgpool): Identity()
        (conv3): Conv2d(128, 512, kernel_size=(1, 1), stride=(1, 1), bias=False)
        (bn3): FrozenBatchNorm2d(num_features=512, eps=1e-05)
        (relu): ReLU(inplace=True)
      )
    )
    (layer3): Sequential(
      (0): Bottleneck(
        (conv1): Conv2d(512, 256, kernel_size=(1, 1), stride=(1, 1), bias=False)
        (bn1): FrozenBatchNorm2d(num_features=256, eps=1e-05)
        (conv2): Conv2d(256, 256, kernel_size=(3, 3), stride=(1, 1), padding=(1, 1), bias=False)
        (bn2): FrozenBatchNorm2d(num_features=256, eps=1e-05)
        (avgpool): AvgPool2d(kernel_size=2, stride=2, padding=0)
        (conv3): Conv2d(256, 1024, kernel_size=(1, 1), stride=(1, 1), bias=False)
        (bn3): FrozenBatchNorm2d(num_features=1024, eps=1e-05)
        (relu): ReLU(inplace=True)
        (downsample): Sequential(
          (-1): AvgPool2d(kernel_size=2, stride=2, padding=0)
          (0): Conv2d(512, 1024, kernel_size=(1, 1), stride=(1, 1), bias=False)
          (1): FrozenBatchNorm2d(num_features=1024, eps=1e-05)
        )
      )
      (1): Bottleneck(
        (conv1): Conv2d(1024, 256, kernel_size=(1, 1), stride=(1, 1), bias=False)
        (bn1): FrozenBatchNorm2d(num_features=256, eps=1e-05)
        (conv2): Conv2d(256, 256, kernel_size=(3, 3), stride=(1, 1), padding=(1, 1), bias=False)
        (bn2): FrozenBatchNorm2d(num_features=256, eps=1e-05)
        (avgpool): Identity()
        (conv3): Conv2d(256, 1024, kernel_size=(1, 1), stride=(1, 1), bias=False)
        (bn3): FrozenBatchNorm2d(num_features=1024, eps=1e-05)
        (relu): ReLU(inplace=True)
      )
      (2): Bottleneck(
        (conv1): Conv2d(1024, 256, kernel_size=(1, 1), stride=(1, 1), bias=False)
        (bn1): FrozenBatchNorm2d(num_features=256, eps=1e-05)
        (conv2): Conv2d(256, 256, kernel_size=(3, 3), stride=(1, 1), padding=(1, 1), bias=False)
        (bn2): FrozenBatchNorm2d(num_features=256, eps=1e-05)
        (avgpool): Identity()
        (conv3): Conv2d(256, 1024, kernel_size=(1, 1), stride=(1, 1), bias=False)
        (bn3): FrozenBatchNorm2d(num_features=1024, eps=1e-05)
        (relu): ReLU(inplace=True)
      )
      (3): Bottleneck(
        (conv1): Conv2d(1024, 256, kernel_size=(1, 1), stride=(1, 1), bias=False)
        (bn1): FrozenBatchNorm2d(num_features=256, eps=1e-05)
        (conv2): Conv2d(256, 256, kernel_size=(3, 3), stride=(1, 1), padding=(1, 1), bias=False)
        (bn2): FrozenBatchNorm2d(num_features=256, eps=1e-05)
        (avgpool): Identity()
        (conv3): Conv2d(256, 1024, kernel_size=(1, 1), stride=(1, 1), bias=False)
        (bn3): FrozenBatchNorm2d(num_features=1024, eps=1e-05)
        (relu): ReLU(inplace=True)
      )
      (4): Bottleneck(
        (conv1): Conv2d(1024, 256, kernel_size=(1, 1), stride=(1, 1), bias=False)
        (bn1): FrozenBatchNorm2d(num_features=256, eps=1e-05)
        (conv2): Conv2d(256, 256, kernel_size=(3, 3), stride=(1, 1), padding=(1, 1), bias=False)
        (bn2): FrozenBatchNorm2d(num_features=256, eps=1e-05)
        (avgpool): Identity()
        (conv3): Conv2d(256, 1024, kernel_size=(1, 1), stride=(1, 1), bias=False)
        (bn3): FrozenBatchNorm2d(num_features=1024, eps=1e-05)
        (relu): ReLU(inplace=True)
      )
      (5): Bottleneck(
        (conv1): Conv2d(1024, 256, kernel_size=(1, 1), stride=(1, 1), bias=False)
        (bn1): FrozenBatchNorm2d(num_features=256, eps=1e-05)
        (conv2): Conv2d(256, 256, kernel_size=(3, 3), stride=(1, 1), padding=(1, 1), bias=False)
        (bn2): FrozenBatchNorm2d(num_features=256, eps=1e-05)
        (avgpool): Identity()
        (conv3): Conv2d(256, 1024, kernel_size=(1, 1), stride=(1, 1), bias=False)
        (bn3): FrozenBatchNorm2d(num_features=1024, eps=1e-05)
        (relu): ReLU(inplace=True)
      )
    )
    (layer4): Sequential(
      (0): Bottleneck(
        (conv1): Conv2d(1024, 512, kernel_size=(1, 1), stride=(1, 1), bias=False)
        (bn1): FrozenBatchNorm2d(num_features=512, eps=1e-05)
        (conv2): Conv2d(512, 512, kernel_size=(3, 3), stride=(1, 1), padding=(1, 1), bias=False)
        (bn2): FrozenBatchNorm2d(num_features=512, eps=1e-05)
        (avgpool): AvgPool2d(kernel_size=2, stride=2, padding=0)
        (conv3): Conv2d(512, 2048, kernel_size=(1, 1), stride=(1, 1), bias=False)
        (bn3): FrozenBatchNorm2d(num_features=2048, eps=1e-05)
        (relu): ReLU(inplace=True)
        (downsample): Sequential(
          (-1): AvgPool2d(kernel_size=2, stride=2, padding=0)
          (0): Conv2d(1024, 2048, kernel_size=(1, 1), stride=(1, 1), bias=False)
          (1): FrozenBatchNorm2d(num_features=2048, eps=1e-05)
        )
      )
      (1): Bottleneck(
        (conv1): Conv2d(2048, 512, kernel_size=(1, 1), stride=(1, 1), bias=False)
        (bn1): FrozenBatchNorm2d(num_features=512, eps=1e-05)
        (conv2): Conv2d(512, 512, kernel_size=(3, 3), stride=(1, 1), padding=(1, 1), bias=False)
        (bn2): FrozenBatchNorm2d(num_features=512, eps=1e-05)
        (avgpool): Identity()
        (conv3): Conv2d(512, 2048, kernel_size=(1, 1), stride=(1, 1), bias=False)
        (bn3): FrozenBatchNorm2d(num_features=2048, eps=1e-05)
        (relu): ReLU(inplace=True)
      )
      (2): Bottleneck(
        (conv1): Conv2d(2048, 512, kernel_size=(1, 1), stride=(1, 1), bias=False)
        (bn1): FrozenBatchNorm2d(num_features=512, eps=1e-05)
        (conv2): Conv2d(512, 512, kernel_size=(3, 3), stride=(1, 1), padding=(1, 1), bias=False)
        (bn2): FrozenBatchNorm2d(num_features=512, eps=1e-05)
        (avgpool): Identity()
        (conv3): Conv2d(512, 2048, kernel_size=(1, 1), stride=(1, 1), bias=False)
        (bn3): FrozenBatchNorm2d(num_features=2048, eps=1e-05)
        (relu): ReLU(inplace=True)
      )
    )
    (lora_layer1): Sequential(
      (0): LoRA(
        (conv1): Conv2d(64, 64, kernel_size=(1, 1), stride=(1, 1), bias=False)
        (bn1): FrozenBatchNorm2d(num_features=64, eps=1e-05)
        (conv2): Conv2d(64, 16, kernel_size=(3, 3), stride=(1, 1), padding=(1, 1), bias=False)
        (bn2): FrozenBatchNorm2d(num_features=16, eps=1e-05)
        (conv3): Conv2d(16, 256, kernel_size=(1, 1), stride=(1, 1), bias=False)
        (bn3): FrozenBatchNorm2d(num_features=256, eps=1e-05)
        (avgpool): Identity()
        (zero_conv): Conv2d(256, 256, kernel_size=(1, 1), stride=(1, 1), bias=False)
        (bn4): FrozenBatchNorm2d(num_features=256, eps=1e-05)
        (relu): ReLU(inplace=True)
      )
    )
    (lora_layer2): Sequential(
      (0): LoRA(
        (conv1): Conv2d(256, 256, kernel_size=(1, 1), stride=(1, 1), bias=False)
        (bn1): FrozenBatchNorm2d(num_features=256, eps=1e-05)
        (conv2): Conv2d(256, 64, kernel_size=(3, 3), stride=(1, 1), padding=(1, 1), bias=False)
        (bn2): FrozenBatchNorm2d(num_features=64, eps=1e-05)
        (conv3): Conv2d(64, 512, kernel_size=(1, 1), stride=(1, 1), bias=False)
        (bn3): FrozenBatchNorm2d(num_features=512, eps=1e-05)
        (avgpool): AvgPool2d(kernel_size=2, stride=2, padding=0)
        (zero_conv): Conv2d(512, 512, kernel_size=(1, 1), stride=(1, 1), bias=False)
        (bn4): FrozenBatchNorm2d(num_features=512, eps=1e-05)
        (relu): ReLU(inplace=True)
      )
    )
    (lora_layer3): Sequential(
      (0): LoRA(
        (conv1): Conv2d(512, 512, kernel_size=(1, 1), stride=(1, 1), bias=False)
        (bn1): FrozenBatchNorm2d(num_features=512, eps=1e-05)
        (conv2): Conv2d(512, 128, kernel_size=(3, 3), stride=(1, 1), padding=(1, 1), bias=False)
        (bn2): FrozenBatchNorm2d(num_features=128, eps=1e-05)
        (conv3): Conv2d(128, 1024, kernel_size=(1, 1), stride=(1, 1), bias=False)
        (bn3): FrozenBatchNorm2d(num_features=1024, eps=1e-05)
        (avgpool): AvgPool2d(kernel_size=2, stride=2, padding=0)
        (zero_conv): Conv2d(1024, 1024, kernel_size=(1, 1), stride=(1, 1), bias=False)
        (bn4): FrozenBatchNorm2d(num_features=1024, eps=1e-05)
        (relu): ReLU(inplace=True)
      )
    )
    (lora_layer4): Sequential(
      (0): LoRA(
        (conv1): Conv2d(1024, 1024, kernel_size=(1, 1), stride=(1, 1), bias=False)
        (bn1): FrozenBatchNorm2d(num_features=1024, eps=1e-05)
        (conv2): Conv2d(1024, 256, kernel_size=(3, 3), stride=(1, 1), padding=(1, 1), bias=False)
        (bn2): FrozenBatchNorm2d(num_features=256, eps=1e-05)
        (conv3): Conv2d(256, 2048, kernel_size=(1, 1), stride=(1, 1), bias=False)
        (bn3): FrozenBatchNorm2d(num_features=2048, eps=1e-05)
        (avgpool): AvgPool2d(kernel_size=2, stride=2, padding=0)
        (zero_conv): Conv2d(2048, 2048, kernel_size=(1, 1), stride=(1, 1), bias=False)
        (bn4): FrozenBatchNorm2d(num_features=2048, eps=1e-05)
        (relu): ReLU(inplace=True)
      )
    )
    (attnpool): AttentionPool2d(
      (k_proj): Linear(in_features=2048, out_features=2048, bias=True)
      (q_proj): Linear(in_features=2048, out_features=2048, bias=True)
      (v_proj): Linear(in_features=2048, out_features=2048, bias=True)
      (c_proj): Linear(in_features=2048, out_features=1024, bias=True)
    )
  )
  (offline_proposal_generator): RPN(
    (rpn_head): StandardRPNHead(
      (conv): Conv2d(
        1024, 1024, kernel_size=(3, 3), stride=(1, 1), padding=(1, 1)
        (activation): ReLU()
      )
      (objectness_logits): Conv2d(1024, 15, kernel_size=(1, 1), stride=(1, 1))
      (anchor_deltas): Conv2d(1024, 60, kernel_size=(1, 1), stride=(1, 1))
    )
    (anchor_generator): DefaultAnchorGenerator(
      (cell_anchors): BufferList()
    )
  )
  (roi_heads): CLIPRes5ROIHeads(
    (pooler): ROIPooler(
      (level_poolers): ModuleList(
        (0): ROIAlign(output_size=(14, 14), spatial_scale=0.0625, sampling_ratio=0, aligned=True)
      )
    )
    (box_predictor): FastRCNNOutputLayers(
      (clip_model): CLIP(
        (visual): ModifiedResNet(
          (conv1): Conv2d(3, 32, kernel_size=(3, 3), stride=(2, 2), padding=(1, 1), bias=False)
          (bn1): BatchNorm2d(32, eps=1e-05, momentum=0.1, affine=True, track_running_stats=True)
          (relu1): ReLU(inplace=True)
          (conv2): Conv2d(32, 32, kernel_size=(3, 3), stride=(1, 1), padding=(1, 1), bias=False)
          (bn2): BatchNorm2d(32, eps=1e-05, momentum=0.1, affine=True, track_running_stats=True)
          (relu2): ReLU(inplace=True)
          (conv3): Conv2d(32, 64, kernel_size=(3, 3), stride=(1, 1), padding=(1, 1), bias=False)
          (bn3): BatchNorm2d(64, eps=1e-05, momentum=0.1, affine=True, track_running_stats=True)
          (relu3): ReLU(inplace=True)
          (avgpool): AvgPool2d(kernel_size=2, stride=2, padding=0)
          (layer1): Sequential(
            (0): Bottleneck(
              (conv1): Conv2d(64, 64, kernel_size=(1, 1), stride=(1, 1), bias=False)
              (bn1): BatchNorm2d(64, eps=1e-05, momentum=0.1, affine=True, track_running_stats=True)
              (relu1): ReLU(inplace=True)
              (conv2): Conv2d(64, 64, kernel_size=(3, 3), stride=(1, 1), padding=(1, 1), bias=False)
              (bn2): BatchNorm2d(64, eps=1e-05, momentum=0.1, affine=True, track_running_stats=True)
              (relu2): ReLU(inplace=True)
              (avgpool): Identity()
              (conv3): Conv2d(64, 256, kernel_size=(1, 1), stride=(1, 1), bias=False)
              (bn3): BatchNorm2d(256, eps=1e-05, momentum=0.1, affine=True, track_running_stats=True)
              (relu3): ReLU(inplace=True)
              (downsample): Sequential(
                (-1): AvgPool2d(kernel_size=1, stride=1, padding=0)
                (0): Conv2d(64, 256, kernel_size=(1, 1), stride=(1, 1), bias=False)
                (1): BatchNorm2d(256, eps=1e-05, momentum=0.1, affine=True, track_running_stats=True)
              )
            )
            (1): Bottleneck(
              (conv1): Conv2d(256, 64, kernel_size=(1, 1), stride=(1, 1), bias=False)
              (bn1): BatchNorm2d(64, eps=1e-05, momentum=0.1, affine=True, track_running_stats=True)
              (relu1): ReLU(inplace=True)
              (conv2): Conv2d(64, 64, kernel_size=(3, 3), stride=(1, 1), padding=(1, 1), bias=False)
              (bn2): BatchNorm2d(64, eps=1e-05, momentum=0.1, affine=True, track_running_stats=True)
              (relu2): ReLU(inplace=True)
              (avgpool): Identity()
              (conv3): Conv2d(64, 256, kernel_size=(1, 1), stride=(1, 1), bias=False)
              (bn3): BatchNorm2d(256, eps=1e-05, momentum=0.1, affine=True, track_running_stats=True)
              (relu3): ReLU(inplace=True)
            )
            (2): Bottleneck(
              (conv1): Conv2d(256, 64, kernel_size=(1, 1), stride=(1, 1), bias=False)
              (bn1): BatchNorm2d(64, eps=1e-05, momentum=0.1, affine=True, track_running_stats=True)
              (relu1): ReLU(inplace=True)
              (conv2): Conv2d(64, 64, kernel_size=(3, 3), stride=(1, 1), padding=(1, 1), bias=False)
              (bn2): BatchNorm2d(64, eps=1e-05, momentum=0.1, affine=True, track_running_stats=True)
              (relu2): ReLU(inplace=True)
              (avgpool): Identity()
              (conv3): Conv2d(64, 256, kernel_size=(1, 1), stride=(1, 1), bias=False)
              (bn3): BatchNorm2d(256, eps=1e-05, momentum=0.1, affine=True, track_running_stats=True)
              (relu3): ReLU(inplace=True)
            )
          )
          (layer2): Sequential(
            (0): Bottleneck(
              (conv1): Conv2d(256, 128, kernel_size=(1, 1), stride=(1, 1), bias=False)
              (bn1): BatchNorm2d(128, eps=1e-05, momentum=0.1, affine=True, track_running_stats=True)
              (relu1): ReLU(inplace=True)
              (conv2): Conv2d(128, 128, kernel_size=(3, 3), stride=(1, 1), padding=(1, 1), bias=False)
              (bn2): BatchNorm2d(128, eps=1e-05, momentum=0.1, affine=True, track_running_stats=True)
              (relu2): ReLU(inplace=True)
              (avgpool): AvgPool2d(kernel_size=2, stride=2, padding=0)
              (conv3): Conv2d(128, 512, kernel_size=(1, 1), stride=(1, 1), bias=False)
              (bn3): BatchNorm2d(512, eps=1e-05, momentum=0.1, affine=True, track_running_stats=True)
              (relu3): ReLU(inplace=True)
              (downsample): Sequential(
                (-1): AvgPool2d(kernel_size=2, stride=2, padding=0)
                (0): Conv2d(256, 512, kernel_size=(1, 1), stride=(1, 1), bias=False)
                (1): BatchNorm2d(512, eps=1e-05, momentum=0.1, affine=True, track_running_stats=True)
              )
            )
            (1): Bottleneck(
              (conv1): Conv2d(512, 128, kernel_size=(1, 1), stride=(1, 1), bias=False)
              (bn1): BatchNorm2d(128, eps=1e-05, momentum=0.1, affine=True, track_running_stats=True)
              (relu1): ReLU(inplace=True)
              (conv2): Conv2d(128, 128, kernel_size=(3, 3), stride=(1, 1), padding=(1, 1), bias=False)
              (bn2): BatchNorm2d(128, eps=1e-05, momentum=0.1, affine=True, track_running_stats=True)
              (relu2): ReLU(inplace=True)
              (avgpool): Identity()
              (conv3): Conv2d(128, 512, kernel_size=(1, 1), stride=(1, 1), bias=False)
              (bn3): BatchNorm2d(512, eps=1e-05, momentum=0.1, affine=True, track_running_stats=True)
              (relu3): ReLU(inplace=True)
            )
            (2): Bottleneck(
              (conv1): Conv2d(512, 128, kernel_size=(1, 1), stride=(1, 1), bias=False)
              (bn1): BatchNorm2d(128, eps=1e-05, momentum=0.1, affine=True, track_running_stats=True)
              (relu1): ReLU(inplace=True)
              (conv2): Conv2d(128, 128, kernel_size=(3, 3), stride=(1, 1), padding=(1, 1), bias=False)
              (bn2): BatchNorm2d(128, eps=1e-05, momentum=0.1, affine=True, track_running_stats=True)
              (relu2): ReLU(inplace=True)
              (avgpool): Identity()
              (conv3): Conv2d(128, 512, kernel_size=(1, 1), stride=(1, 1), bias=False)
              (bn3): BatchNorm2d(512, eps=1e-05, momentum=0.1, affine=True, track_running_stats=True)
              (relu3): ReLU(inplace=True)
            )
            (3): Bottleneck(
              (conv1): Conv2d(512, 128, kernel_size=(1, 1), stride=(1, 1), bias=False)
              (bn1): BatchNorm2d(128, eps=1e-05, momentum=0.1, affine=True, track_running_stats=True)
              (relu1): ReLU(inplace=True)
              (conv2): Conv2d(128, 128, kernel_size=(3, 3), stride=(1, 1), padding=(1, 1), bias=False)
              (bn2): BatchNorm2d(128, eps=1e-05, momentum=0.1, affine=True, track_running_stats=True)
              (relu2): ReLU(inplace=True)
              (avgpool): Identity()
              (conv3): Conv2d(128, 512, kernel_size=(1, 1), stride=(1, 1), bias=False)
              (bn3): BatchNorm2d(512, eps=1e-05, momentum=0.1, affine=True, track_running_stats=True)
              (relu3): ReLU(inplace=True)
            )
          )
          (layer3): Sequential(
            (0): Bottleneck(
              (conv1): Conv2d(512, 256, kernel_size=(1, 1), stride=(1, 1), bias=False)
              (bn1): BatchNorm2d(256, eps=1e-05, momentum=0.1, affine=True, track_running_stats=True)
              (relu1): ReLU(inplace=True)
              (conv2): Conv2d(256, 256, kernel_size=(3, 3), stride=(1, 1), padding=(1, 1), bias=False)
              (bn2): BatchNorm2d(256, eps=1e-05, momentum=0.1, affine=True, track_running_stats=True)
              (relu2): ReLU(inplace=True)
              (avgpool): AvgPool2d(kernel_size=2, stride=2, padding=0)
              (conv3): Conv2d(256, 1024, kernel_size=(1, 1), stride=(1, 1), bias=False)
              (bn3): BatchNorm2d(1024, eps=1e-05, momentum=0.1, affine=True, track_running_stats=True)
              (relu3): ReLU(inplace=True)
              (downsample): Sequential(
                (-1): AvgPool2d(kernel_size=2, stride=2, padding=0)
                (0): Conv2d(512, 1024, kernel_size=(1, 1), stride=(1, 1), bias=False)
                (1): BatchNorm2d(1024, eps=1e-05, momentum=0.1, affine=True, track_running_stats=True)
              )
            )
            (1): Bottleneck(
              (conv1): Conv2d(1024, 256, kernel_size=(1, 1), stride=(1, 1), bias=False)
              (bn1): BatchNorm2d(256, eps=1e-05, momentum=0.1, affine=True, track_running_stats=True)
              (relu1): ReLU(inplace=True)
              (conv2): Conv2d(256, 256, kernel_size=(3, 3), stride=(1, 1), padding=(1, 1), bias=False)
              (bn2): BatchNorm2d(256, eps=1e-05, momentum=0.1, affine=True, track_running_stats=True)
              (relu2): ReLU(inplace=True)
              (avgpool): Identity()
              (conv3): Conv2d(256, 1024, kernel_size=(1, 1), stride=(1, 1), bias=False)
              (bn3): BatchNorm2d(1024, eps=1e-05, momentum=0.1, affine=True, track_running_stats=True)
              (relu3): ReLU(inplace=True)
            )
            (2): Bottleneck(
              (conv1): Conv2d(1024, 256, kernel_size=(1, 1), stride=(1, 1), bias=False)
              (bn1): BatchNorm2d(256, eps=1e-05, momentum=0.1, affine=True, track_running_stats=True)
              (relu1): ReLU(inplace=True)
              (conv2): Conv2d(256, 256, kernel_size=(3, 3), stride=(1, 1), padding=(1, 1), bias=False)
              (bn2): BatchNorm2d(256, eps=1e-05, momentum=0.1, affine=True, track_running_stats=True)
              (relu2): ReLU(inplace=True)
              (avgpool): Identity()
              (conv3): Conv2d(256, 1024, kernel_size=(1, 1), stride=(1, 1), bias=False)
              (bn3): BatchNorm2d(1024, eps=1e-05, momentum=0.1, affine=True, track_running_stats=True)
              (relu3): ReLU(inplace=True)
            )
            (3): Bottleneck(
              (conv1): Conv2d(1024, 256, kernel_size=(1, 1), stride=(1, 1), bias=False)
              (bn1): BatchNorm2d(256, eps=1e-05, momentum=0.1, affine=True, track_running_stats=True)
              (relu1): ReLU(inplace=True)
              (conv2): Conv2d(256, 256, kernel_size=(3, 3), stride=(1, 1), padding=(1, 1), bias=False)
              (bn2): BatchNorm2d(256, eps=1e-05, momentum=0.1, affine=True, track_running_stats=True)
              (relu2): ReLU(inplace=True)
              (avgpool): Identity()
              (conv3): Conv2d(256, 1024, kernel_size=(1, 1), stride=(1, 1), bias=False)
              (bn3): BatchNorm2d(1024, eps=1e-05, momentum=0.1, affine=True, track_running_stats=True)
              (relu3): ReLU(inplace=True)
            )
            (4): Bottleneck(
              (conv1): Conv2d(1024, 256, kernel_size=(1, 1), stride=(1, 1), bias=False)
              (bn1): BatchNorm2d(256, eps=1e-05, momentum=0.1, affine=True, track_running_stats=True)
              (relu1): ReLU(inplace=True)
              (conv2): Conv2d(256, 256, kernel_size=(3, 3), stride=(1, 1), padding=(1, 1), bias=False)
              (bn2): BatchNorm2d(256, eps=1e-05, momentum=0.1, affine=True, track_running_stats=True)
              (relu2): ReLU(inplace=True)
              (avgpool): Identity()
              (conv3): Conv2d(256, 1024, kernel_size=(1, 1), stride=(1, 1), bias=False)
              (bn3): BatchNorm2d(1024, eps=1e-05, momentum=0.1, affine=True, track_running_stats=True)
              (relu3): ReLU(inplace=True)
            )
            (5): Bottleneck(
              (conv1): Conv2d(1024, 256, kernel_size=(1, 1), stride=(1, 1), bias=False)
              (bn1): BatchNorm2d(256, eps=1e-05, momentum=0.1, affine=True, track_running_stats=True)
              (relu1): ReLU(inplace=True)
              (conv2): Conv2d(256, 256, kernel_size=(3, 3), stride=(1, 1), padding=(1, 1), bias=False)
              (bn2): BatchNorm2d(256, eps=1e-05, momentum=0.1, affine=True, track_running_stats=True)
              (relu2): ReLU(inplace=True)
              (avgpool): Identity()
              (conv3): Conv2d(256, 1024, kernel_size=(1, 1), stride=(1, 1), bias=False)
              (bn3): BatchNorm2d(1024, eps=1e-05, momentum=0.1, affine=True, track_running_stats=True)
              (relu3): ReLU(inplace=True)
            )
          )
          (layer4): Sequential(
            (0): Bottleneck(
              (conv1): Conv2d(1024, 512, kernel_size=(1, 1), stride=(1, 1), bias=False)
              (bn1): BatchNorm2d(512, eps=1e-05, momentum=0.1, affine=True, track_running_stats=True)
              (relu1): ReLU(inplace=True)
              (conv2): Conv2d(512, 512, kernel_size=(3, 3), stride=(1, 1), padding=(1, 1), bias=False)
              (bn2): BatchNorm2d(512, eps=1e-05, momentum=0.1, affine=True, track_running_stats=True)
              (relu2): ReLU(inplace=True)
              (avgpool): AvgPool2d(kernel_size=2, stride=2, padding=0)
              (conv3): Conv2d(512, 2048, kernel_size=(1, 1), stride=(1, 1), bias=False)
              (bn3): BatchNorm2d(2048, eps=1e-05, momentum=0.1, affine=True, track_running_stats=True)
              (relu3): ReLU(inplace=True)
              (downsample): Sequential(
                (-1): AvgPool2d(kernel_size=2, stride=2, padding=0)
                (0): Conv2d(1024, 2048, kernel_size=(1, 1), stride=(1, 1), bias=False)
                (1): BatchNorm2d(2048, eps=1e-05, momentum=0.1, affine=True, track_running_stats=True)
              )
            )
            (1): Bottleneck(
              (conv1): Conv2d(2048, 512, kernel_size=(1, 1), stride=(1, 1), bias=False)
              (bn1): BatchNorm2d(512, eps=1e-05, momentum=0.1, affine=True, track_running_stats=True)
              (relu1): ReLU(inplace=True)
              (conv2): Conv2d(512, 512, kernel_size=(3, 3), stride=(1, 1), padding=(1, 1), bias=False)
              (bn2): BatchNorm2d(512, eps=1e-05, momentum=0.1, affine=True, track_running_stats=True)
              (relu2): ReLU(inplace=True)
              (avgpool): Identity()
              (conv3): Conv2d(512, 2048, kernel_size=(1, 1), stride=(1, 1), bias=False)
              (bn3): BatchNorm2d(2048, eps=1e-05, momentum=0.1, affine=True, track_running_stats=True)
              (relu3): ReLU(inplace=True)
            )
            (2): Bottleneck(
              (conv1): Conv2d(2048, 512, kernel_size=(1, 1), stride=(1, 1), bias=False)
              (bn1): BatchNorm2d(512, eps=1e-05, momentum=0.1, affine=True, track_running_stats=True)
              (relu1): ReLU(inplace=True)
              (conv2): Conv2d(512, 512, kernel_size=(3, 3), stride=(1, 1), padding=(1, 1), bias=False)
              (bn2): BatchNorm2d(512, eps=1e-05, momentum=0.1, affine=True, track_running_stats=True)
              (relu2): ReLU(inplace=True)
              (avgpool): Identity()
              (conv3): Conv2d(512, 2048, kernel_size=(1, 1), stride=(1, 1), bias=False)
              (bn3): BatchNorm2d(2048, eps=1e-05, momentum=0.1, affine=True, track_running_stats=True)
              (relu3): ReLU(inplace=True)
            )
          )
          (attnpool): AttentionPool2d(
            (k_proj): Linear(in_features=2048, out_features=2048, bias=True)
            (q_proj): Linear(in_features=2048, out_features=2048, bias=True)
            (v_proj): Linear(in_features=2048, out_features=2048, bias=True)
            (c_proj): Linear(in_features=2048, out_features=1024, bias=True)
          )
        )
        (transformer): Transformer(
          (resblocks): Sequential(
            (0): ResidualAttentionBlock(
              (attn): MultiheadAttention(
                (out_proj): NonDynamicallyQuantizableLinear(in_features=512, out_features=512, bias=True)
              )
              (ln_1): LayerNorm((512,), eps=1e-05, elementwise_affine=True)
              (mlp): Sequential(
                (c_fc): Linear(in_features=512, out_features=2048, bias=True)
                (gelu): QuickGELU()
                (c_proj): Linear(in_features=2048, out_features=512, bias=True)
              )
              (ln_2): LayerNorm((512,), eps=1e-05, elementwise_affine=True)
            )
            (1): ResidualAttentionBlock(
              (attn): MultiheadAttention(
                (out_proj): NonDynamicallyQuantizableLinear(in_features=512, out_features=512, bias=True)
              )
              (ln_1): LayerNorm((512,), eps=1e-05, elementwise_affine=True)
              (mlp): Sequential(
                (c_fc): Linear(in_features=512, out_features=2048, bias=True)
                (gelu): QuickGELU()
                (c_proj): Linear(in_features=2048, out_features=512, bias=True)
              )
              (ln_2): LayerNorm((512,), eps=1e-05, elementwise_affine=True)
            )
            (2): ResidualAttentionBlock(
              (attn): MultiheadAttention(
                (out_proj): NonDynamicallyQuantizableLinear(in_features=512, out_features=512, bias=True)
              )
              (ln_1): LayerNorm((512,), eps=1e-05, elementwise_affine=True)
              (mlp): Sequential(
                (c_fc): Linear(in_features=512, out_features=2048, bias=True)
                (gelu): QuickGELU()
                (c_proj): Linear(in_features=2048, out_features=512, bias=True)
              )
              (ln_2): LayerNorm((512,), eps=1e-05, elementwise_affine=True)
            )
            (3): ResidualAttentionBlock(
              (attn): MultiheadAttention(
                (out_proj): NonDynamicallyQuantizableLinear(in_features=512, out_features=512, bias=True)
              )
              (ln_1): LayerNorm((512,), eps=1e-05, elementwise_affine=True)
              (mlp): Sequential(
                (c_fc): Linear(in_features=512, out_features=2048, bias=True)
                (gelu): QuickGELU()
                (c_proj): Linear(in_features=2048, out_features=512, bias=True)
              )
              (ln_2): LayerNorm((512,), eps=1e-05, elementwise_affine=True)
            )
            (4): ResidualAttentionBlock(
              (attn): MultiheadAttention(
                (out_proj): NonDynamicallyQuantizableLinear(in_features=512, out_features=512, bias=True)
              )
              (ln_1): LayerNorm((512,), eps=1e-05, elementwise_affine=True)
              (mlp): Sequential(
                (c_fc): Linear(in_features=512, out_features=2048, bias=True)
                (gelu): QuickGELU()
                (c_proj): Linear(in_features=2048, out_features=512, bias=True)
              )
              (ln_2): LayerNorm((512,), eps=1e-05, elementwise_affine=True)
            )
            (5): ResidualAttentionBlock(
              (attn): MultiheadAttention(
                (out_proj): NonDynamicallyQuantizableLinear(in_features=512, out_features=512, bias=True)
              )
              (ln_1): LayerNorm((512,), eps=1e-05, elementwise_affine=True)
              (mlp): Sequential(
                (c_fc): Linear(in_features=512, out_features=2048, bias=True)
                (gelu): QuickGELU()
                (c_proj): Linear(in_features=2048, out_features=512, bias=True)
              )
              (ln_2): LayerNorm((512,), eps=1e-05, elementwise_affine=True)
            )
            (6): ResidualAttentionBlock(
              (attn): MultiheadAttention(
                (out_proj): NonDynamicallyQuantizableLinear(in_features=512, out_features=512, bias=True)
              )
              (ln_1): LayerNorm((512,), eps=1e-05, elementwise_affine=True)
              (mlp): Sequential(
                (c_fc): Linear(in_features=512, out_features=2048, bias=True)
                (gelu): QuickGELU()
                (c_proj): Linear(in_features=2048, out_features=512, bias=True)
              )
              (ln_2): LayerNorm((512,), eps=1e-05, elementwise_affine=True)
            )
            (7): ResidualAttentionBlock(
              (attn): MultiheadAttention(
                (out_proj): NonDynamicallyQuantizableLinear(in_features=512, out_features=512, bias=True)
              )
              (ln_1): LayerNorm((512,), eps=1e-05, elementwise_affine=True)
              (mlp): Sequential(
                (c_fc): Linear(in_features=512, out_features=2048, bias=True)
                (gelu): QuickGELU()
                (c_proj): Linear(in_features=2048, out_features=512, bias=True)
              )
              (ln_2): LayerNorm((512,), eps=1e-05, elementwise_affine=True)
            )
            (8): ResidualAttentionBlock(
              (attn): MultiheadAttention(
                (out_proj): NonDynamicallyQuantizableLinear(in_features=512, out_features=512, bias=True)
              )
              (ln_1): LayerNorm((512,), eps=1e-05, elementwise_affine=True)
              (mlp): Sequential(
                (c_fc): Linear(in_features=512, out_features=2048, bias=True)
                (gelu): QuickGELU()
                (c_proj): Linear(in_features=2048, out_features=512, bias=True)
              )
              (ln_2): LayerNorm((512,), eps=1e-05, elementwise_affine=True)
            )
            (9): ResidualAttentionBlock(
              (attn): MultiheadAttention(
                (out_proj): NonDynamicallyQuantizableLinear(in_features=512, out_features=512, bias=True)
              )
              (ln_1): LayerNorm((512,), eps=1e-05, elementwise_affine=True)
              (mlp): Sequential(
                (c_fc): Linear(in_features=512, out_features=2048, bias=True)
                (gelu): QuickGELU()
                (c_proj): Linear(in_features=2048, out_features=512, bias=True)
              )
              (ln_2): LayerNorm((512,), eps=1e-05, elementwise_affine=True)
            )
            (10): ResidualAttentionBlock(
              (attn): MultiheadAttention(
                (out_proj): NonDynamicallyQuantizableLinear(in_features=512, out_features=512, bias=True)
              )
              (ln_1): LayerNorm((512,), eps=1e-05, elementwise_affine=True)
              (mlp): Sequential(
                (c_fc): Linear(in_features=512, out_features=2048, bias=True)
                (gelu): QuickGELU()
                (c_proj): Linear(in_features=2048, out_features=512, bias=True)
              )
              (ln_2): LayerNorm((512,), eps=1e-05, elementwise_affine=True)
            )
            (11): ResidualAttentionBlock(
              (attn): MultiheadAttention(
                (out_proj): NonDynamicallyQuantizableLinear(in_features=512, out_features=512, bias=True)
              )
              (ln_1): LayerNorm((512,), eps=1e-05, elementwise_affine=True)
              (mlp): Sequential(
                (c_fc): Linear(in_features=512, out_features=2048, bias=True)
                (gelu): QuickGELU()
                (c_proj): Linear(in_features=2048, out_features=512, bias=True)
              )
              (ln_2): LayerNorm((512,), eps=1e-05, elementwise_affine=True)
            )
          )
        )
        (token_embedding): Embedding(49408, 512)
        (ln_final): LayerNorm((512,), eps=1e-05, elementwise_affine=True)
      )
      (DAHead): DAPromptHead(
        (prompt_learner): PromptLearner(
          (clip_model): CLIP(
            (visual): ModifiedResNet(
              (conv1): Conv2d(3, 32, kernel_size=(3, 3), stride=(2, 2), padding=(1, 1), bias=False)
              (bn1): BatchNorm2d(32, eps=1e-05, momentum=0.1, affine=True, track_running_stats=True)
              (relu1): ReLU(inplace=True)
              (conv2): Conv2d(32, 32, kernel_size=(3, 3), stride=(1, 1), padding=(1, 1), bias=False)
              (bn2): BatchNorm2d(32, eps=1e-05, momentum=0.1, affine=True, track_running_stats=True)
              (relu2): ReLU(inplace=True)
              (conv3): Conv2d(32, 64, kernel_size=(3, 3), stride=(1, 1), padding=(1, 1), bias=False)
              (bn3): BatchNorm2d(64, eps=1e-05, momentum=0.1, affine=True, track_running_stats=True)
              (relu3): ReLU(inplace=True)
              (avgpool): AvgPool2d(kernel_size=2, stride=2, padding=0)
              (layer1): Sequential(
                (0): Bottleneck(
                  (conv1): Conv2d(64, 64, kernel_size=(1, 1), stride=(1, 1), bias=False)
                  (bn1): BatchNorm2d(64, eps=1e-05, momentum=0.1, affine=True, track_running_stats=True)
                  (relu1): ReLU(inplace=True)
                  (conv2): Conv2d(64, 64, kernel_size=(3, 3), stride=(1, 1), padding=(1, 1), bias=False)
                  (bn2): BatchNorm2d(64, eps=1e-05, momentum=0.1, affine=True, track_running_stats=True)
                  (relu2): ReLU(inplace=True)
                  (avgpool): Identity()
                  (conv3): Conv2d(64, 256, kernel_size=(1, 1), stride=(1, 1), bias=False)
                  (bn3): BatchNorm2d(256, eps=1e-05, momentum=0.1, affine=True, track_running_stats=True)
                  (relu3): ReLU(inplace=True)
                  (downsample): Sequential(
                    (-1): AvgPool2d(kernel_size=1, stride=1, padding=0)
                    (0): Conv2d(64, 256, kernel_size=(1, 1), stride=(1, 1), bias=False)
                    (1): BatchNorm2d(256, eps=1e-05, momentum=0.1, affine=True, track_running_stats=True)
                  )
                )
                (1): Bottleneck(
                  (conv1): Conv2d(256, 64, kernel_size=(1, 1), stride=(1, 1), bias=False)
                  (bn1): BatchNorm2d(64, eps=1e-05, momentum=0.1, affine=True, track_running_stats=True)
                  (relu1): ReLU(inplace=True)
                  (conv2): Conv2d(64, 64, kernel_size=(3, 3), stride=(1, 1), padding=(1, 1), bias=False)
                  (bn2): BatchNorm2d(64, eps=1e-05, momentum=0.1, affine=True, track_running_stats=True)
                  (relu2): ReLU(inplace=True)
                  (avgpool): Identity()
                  (conv3): Conv2d(64, 256, kernel_size=(1, 1), stride=(1, 1), bias=False)
                  (bn3): BatchNorm2d(256, eps=1e-05, momentum=0.1, affine=True, track_running_stats=True)
                  (relu3): ReLU(inplace=True)
                )
                (2): Bottleneck(
                  (conv1): Conv2d(256, 64, kernel_size=(1, 1), stride=(1, 1), bias=False)
                  (bn1): BatchNorm2d(64, eps=1e-05, momentum=0.1, affine=True, track_running_stats=True)
                  (relu1): ReLU(inplace=True)
                  (conv2): Conv2d(64, 64, kernel_size=(3, 3), stride=(1, 1), padding=(1, 1), bias=False)
                  (bn2): BatchNorm2d(64, eps=1e-05, momentum=0.1, affine=True, track_running_stats=True)
                  (relu2): ReLU(inplace=True)
                  (avgpool): Identity()
                  (conv3): Conv2d(64, 256, kernel_size=(1, 1), stride=(1, 1), bias=False)
                  (bn3): BatchNorm2d(256, eps=1e-05, momentum=0.1, affine=True, track_running_stats=True)
                  (relu3): ReLU(inplace=True)
                )
              )
              (layer2): Sequential(
                (0): Bottleneck(
                  (conv1): Conv2d(256, 128, kernel_size=(1, 1), stride=(1, 1), bias=False)
                  (bn1): BatchNorm2d(128, eps=1e-05, momentum=0.1, affine=True, track_running_stats=True)
                  (relu1): ReLU(inplace=True)
                  (conv2): Conv2d(128, 128, kernel_size=(3, 3), stride=(1, 1), padding=(1, 1), bias=False)
                  (bn2): BatchNorm2d(128, eps=1e-05, momentum=0.1, affine=True, track_running_stats=True)
                  (relu2): ReLU(inplace=True)
                  (avgpool): AvgPool2d(kernel_size=2, stride=2, padding=0)
                  (conv3): Conv2d(128, 512, kernel_size=(1, 1), stride=(1, 1), bias=False)
                  (bn3): BatchNorm2d(512, eps=1e-05, momentum=0.1, affine=True, track_running_stats=True)
                  (relu3): ReLU(inplace=True)
                  (downsample): Sequential(
                    (-1): AvgPool2d(kernel_size=2, stride=2, padding=0)
                    (0): Conv2d(256, 512, kernel_size=(1, 1), stride=(1, 1), bias=False)
                    (1): BatchNorm2d(512, eps=1e-05, momentum=0.1, affine=True, track_running_stats=True)
                  )
                )
                (1): Bottleneck(
                  (conv1): Conv2d(512, 128, kernel_size=(1, 1), stride=(1, 1), bias=False)
                  (bn1): BatchNorm2d(128, eps=1e-05, momentum=0.1, affine=True, track_running_stats=True)
                  (relu1): ReLU(inplace=True)
                  (conv2): Conv2d(128, 128, kernel_size=(3, 3), stride=(1, 1), padding=(1, 1), bias=False)
                  (bn2): BatchNorm2d(128, eps=1e-05, momentum=0.1, affine=True, track_running_stats=True)
                  (relu2): ReLU(inplace=True)
                  (avgpool): Identity()
                  (conv3): Conv2d(128, 512, kernel_size=(1, 1), stride=(1, 1), bias=False)
                  (bn3): BatchNorm2d(512, eps=1e-05, momentum=0.1, affine=True, track_running_stats=True)
                  (relu3): ReLU(inplace=True)
                )
                (2): Bottleneck(
                  (conv1): Conv2d(512, 128, kernel_size=(1, 1), stride=(1, 1), bias=False)
                  (bn1): BatchNorm2d(128, eps=1e-05, momentum=0.1, affine=True, track_running_stats=True)
                  (relu1): ReLU(inplace=True)
                  (conv2): Conv2d(128, 128, kernel_size=(3, 3), stride=(1, 1), padding=(1, 1), bias=False)
                  (bn2): BatchNorm2d(128, eps=1e-05, momentum=0.1, affine=True, track_running_stats=True)
                  (relu2): ReLU(inplace=True)
                  (avgpool): Identity()
                  (conv3): Conv2d(128, 512, kernel_size=(1, 1), stride=(1, 1), bias=False)
                  (bn3): BatchNorm2d(512, eps=1e-05, momentum=0.1, affine=True, track_running_stats=True)
                  (relu3): ReLU(inplace=True)
                )
                (3): Bottleneck(
                  (conv1): Conv2d(512, 128, kernel_size=(1, 1), stride=(1, 1), bias=False)
                  (bn1): BatchNorm2d(128, eps=1e-05, momentum=0.1, affine=True, track_running_stats=True)
                  (relu1): ReLU(inplace=True)
                  (conv2): Conv2d(128, 128, kernel_size=(3, 3), stride=(1, 1), padding=(1, 1), bias=False)
                  (bn2): BatchNorm2d(128, eps=1e-05, momentum=0.1, affine=True, track_running_stats=True)
                  (relu2): ReLU(inplace=True)
                  (avgpool): Identity()
                  (conv3): Conv2d(128, 512, kernel_size=(1, 1), stride=(1, 1), bias=False)
                  (bn3): BatchNorm2d(512, eps=1e-05, momentum=0.1, affine=True, track_running_stats=True)
                  (relu3): ReLU(inplace=True)
                )
              )
              (layer3): Sequential(
                (0): Bottleneck(
                  (conv1): Conv2d(512, 256, kernel_size=(1, 1), stride=(1, 1), bias=False)
                  (bn1): BatchNorm2d(256, eps=1e-05, momentum=0.1, affine=True, track_running_stats=True)
                  (relu1): ReLU(inplace=True)
                  (conv2): Conv2d(256, 256, kernel_size=(3, 3), stride=(1, 1), padding=(1, 1), bias=False)
                  (bn2): BatchNorm2d(256, eps=1e-05, momentum=0.1, affine=True, track_running_stats=True)
                  (relu2): ReLU(inplace=True)
                  (avgpool): AvgPool2d(kernel_size=2, stride=2, padding=0)
                  (conv3): Conv2d(256, 1024, kernel_size=(1, 1), stride=(1, 1), bias=False)
                  (bn3): BatchNorm2d(1024, eps=1e-05, momentum=0.1, affine=True, track_running_stats=True)
                  (relu3): ReLU(inplace=True)
                  (downsample): Sequential(
                    (-1): AvgPool2d(kernel_size=2, stride=2, padding=0)
                    (0): Conv2d(512, 1024, kernel_size=(1, 1), stride=(1, 1), bias=False)
                    (1): BatchNorm2d(1024, eps=1e-05, momentum=0.1, affine=True, track_running_stats=True)
                  )
                )
                (1): Bottleneck(
                  (conv1): Conv2d(1024, 256, kernel_size=(1, 1), stride=(1, 1), bias=False)
                  (bn1): BatchNorm2d(256, eps=1e-05, momentum=0.1, affine=True, track_running_stats=True)
                  (relu1): ReLU(inplace=True)
                  (conv2): Conv2d(256, 256, kernel_size=(3, 3), stride=(1, 1), padding=(1, 1), bias=False)
                  (bn2): BatchNorm2d(256, eps=1e-05, momentum=0.1, affine=True, track_running_stats=True)
                  (relu2): ReLU(inplace=True)
                  (avgpool): Identity()
                  (conv3): Conv2d(256, 1024, kernel_size=(1, 1), stride=(1, 1), bias=False)
                  (bn3): BatchNorm2d(1024, eps=1e-05, momentum=0.1, affine=True, track_running_stats=True)
                  (relu3): ReLU(inplace=True)
                )
                (2): Bottleneck(
                  (conv1): Conv2d(1024, 256, kernel_size=(1, 1), stride=(1, 1), bias=False)
                  (bn1): BatchNorm2d(256, eps=1e-05, momentum=0.1, affine=True, track_running_stats=True)
                  (relu1): ReLU(inplace=True)
                  (conv2): Conv2d(256, 256, kernel_size=(3, 3), stride=(1, 1), padding=(1, 1), bias=False)
                  (bn2): BatchNorm2d(256, eps=1e-05, momentum=0.1, affine=True, track_running_stats=True)
                  (relu2): ReLU(inplace=True)
                  (avgpool): Identity()
                  (conv3): Conv2d(256, 1024, kernel_size=(1, 1), stride=(1, 1), bias=False)
                  (bn3): BatchNorm2d(1024, eps=1e-05, momentum=0.1, affine=True, track_running_stats=True)
                  (relu3): ReLU(inplace=True)
                )
                (3): Bottleneck(
                  (conv1): Conv2d(1024, 256, kernel_size=(1, 1), stride=(1, 1), bias=False)
                  (bn1): BatchNorm2d(256, eps=1e-05, momentum=0.1, affine=True, track_running_stats=True)
                  (relu1): ReLU(inplace=True)
                  (conv2): Conv2d(256, 256, kernel_size=(3, 3), stride=(1, 1), padding=(1, 1), bias=False)
                  (bn2): BatchNorm2d(256, eps=1e-05, momentum=0.1, affine=True, track_running_stats=True)
                  (relu2): ReLU(inplace=True)
                  (avgpool): Identity()
                  (conv3): Conv2d(256, 1024, kernel_size=(1, 1), stride=(1, 1), bias=False)
                  (bn3): BatchNorm2d(1024, eps=1e-05, momentum=0.1, affine=True, track_running_stats=True)
                  (relu3): ReLU(inplace=True)
                )
                (4): Bottleneck(
                  (conv1): Conv2d(1024, 256, kernel_size=(1, 1), stride=(1, 1), bias=False)
                  (bn1): BatchNorm2d(256, eps=1e-05, momentum=0.1, affine=True, track_running_stats=True)
                  (relu1): ReLU(inplace=True)
                  (conv2): Conv2d(256, 256, kernel_size=(3, 3), stride=(1, 1), padding=(1, 1), bias=False)
                  (bn2): BatchNorm2d(256, eps=1e-05, momentum=0.1, affine=True, track_running_stats=True)
                  (relu2): ReLU(inplace=True)
                  (avgpool): Identity()
                  (conv3): Conv2d(256, 1024, kernel_size=(1, 1), stride=(1, 1), bias=False)
                  (bn3): BatchNorm2d(1024, eps=1e-05, momentum=0.1, affine=True, track_running_stats=True)
                  (relu3): ReLU(inplace=True)
                )
                (5): Bottleneck(
                  (conv1): Conv2d(1024, 256, kernel_size=(1, 1), stride=(1, 1), bias=False)
                  (bn1): BatchNorm2d(256, eps=1e-05, momentum=0.1, affine=True, track_running_stats=True)
                  (relu1): ReLU(inplace=True)
                  (conv2): Conv2d(256, 256, kernel_size=(3, 3), stride=(1, 1), padding=(1, 1), bias=False)
                  (bn2): BatchNorm2d(256, eps=1e-05, momentum=0.1, affine=True, track_running_stats=True)
                  (relu2): ReLU(inplace=True)
                  (avgpool): Identity()
                  (conv3): Conv2d(256, 1024, kernel_size=(1, 1), stride=(1, 1), bias=False)
                  (bn3): BatchNorm2d(1024, eps=1e-05, momentum=0.1, affine=True, track_running_stats=True)
                  (relu3): ReLU(inplace=True)
                )
              )
              (layer4): Sequential(
                (0): Bottleneck(
                  (conv1): Conv2d(1024, 512, kernel_size=(1, 1), stride=(1, 1), bias=False)
                  (bn1): BatchNorm2d(512, eps=1e-05, momentum=0.1, affine=True, track_running_stats=True)
                  (relu1): ReLU(inplace=True)
                  (conv2): Conv2d(512, 512, kernel_size=(3, 3), stride=(1, 1), padding=(1, 1), bias=False)
                  (bn2): BatchNorm2d(512, eps=1e-05, momentum=0.1, affine=True, track_running_stats=True)
                  (relu2): ReLU(inplace=True)
                  (avgpool): AvgPool2d(kernel_size=2, stride=2, padding=0)
                  (conv3): Conv2d(512, 2048, kernel_size=(1, 1), stride=(1, 1), bias=False)
                  (bn3): BatchNorm2d(2048, eps=1e-05, momentum=0.1, affine=True, track_running_stats=True)
                  (relu3): ReLU(inplace=True)
                  (downsample): Sequential(
                    (-1): AvgPool2d(kernel_size=2, stride=2, padding=0)
                    (0): Conv2d(1024, 2048, kernel_size=(1, 1), stride=(1, 1), bias=False)
                    (1): BatchNorm2d(2048, eps=1e-05, momentum=0.1, affine=True, track_running_stats=True)
                  )
                )
                (1): Bottleneck(
                  (conv1): Conv2d(2048, 512, kernel_size=(1, 1), stride=(1, 1), bias=False)
                  (bn1): BatchNorm2d(512, eps=1e-05, momentum=0.1, affine=True, track_running_stats=True)
                  (relu1): ReLU(inplace=True)
                  (conv2): Conv2d(512, 512, kernel_size=(3, 3), stride=(1, 1), padding=(1, 1), bias=False)
                  (bn2): BatchNorm2d(512, eps=1e-05, momentum=0.1, affine=True, track_running_stats=True)
                  (relu2): ReLU(inplace=True)
                  (avgpool): Identity()
                  (conv3): Conv2d(512, 2048, kernel_size=(1, 1), stride=(1, 1), bias=False)
                  (bn3): BatchNorm2d(2048, eps=1e-05, momentum=0.1, affine=True, track_running_stats=True)
                  (relu3): ReLU(inplace=True)
                )
                (2): Bottleneck(
                  (conv1): Conv2d(2048, 512, kernel_size=(1, 1), stride=(1, 1), bias=False)
                  (bn1): BatchNorm2d(512, eps=1e-05, momentum=0.1, affine=True, track_running_stats=True)
                  (relu1): ReLU(inplace=True)
                  (conv2): Conv2d(512, 512, kernel_size=(3, 3), stride=(1, 1), padding=(1, 1), bias=False)
                  (bn2): BatchNorm2d(512, eps=1e-05, momentum=0.1, affine=True, track_running_stats=True)
                  (relu2): ReLU(inplace=True)
                  (avgpool): Identity()
                  (conv3): Conv2d(512, 2048, kernel_size=(1, 1), stride=(1, 1), bias=False)
                  (bn3): BatchNorm2d(2048, eps=1e-05, momentum=0.1, affine=True, track_running_stats=True)
                  (relu3): ReLU(inplace=True)
                )
              )
              (attnpool): AttentionPool2d(
                (k_proj): Linear(in_features=2048, out_features=2048, bias=True)
                (q_proj): Linear(in_features=2048, out_features=2048, bias=True)
                (v_proj): Linear(in_features=2048, out_features=2048, bias=True)
                (c_proj): Linear(in_features=2048, out_features=1024, bias=True)
              )
            )
            (transformer): Transformer(
              (resblocks): Sequential(
                (0): ResidualAttentionBlock(
                  (attn): MultiheadAttention(
                    (out_proj): NonDynamicallyQuantizableLinear(in_features=512, out_features=512, bias=True)
                  )
                  (ln_1): LayerNorm((512,), eps=1e-05, elementwise_affine=True)
                  (mlp): Sequential(
                    (c_fc): Linear(in_features=512, out_features=2048, bias=True)
                    (gelu): QuickGELU()
                    (c_proj): Linear(in_features=2048, out_features=512, bias=True)
                  )
                  (ln_2): LayerNorm((512,), eps=1e-05, elementwise_affine=True)
                )
                (1): ResidualAttentionBlock(
                  (attn): MultiheadAttention(
                    (out_proj): NonDynamicallyQuantizableLinear(in_features=512, out_features=512, bias=True)
                  )
                  (ln_1): LayerNorm((512,), eps=1e-05, elementwise_affine=True)
                  (mlp): Sequential(
                    (c_fc): Linear(in_features=512, out_features=2048, bias=True)
                    (gelu): QuickGELU()
                    (c_proj): Linear(in_features=2048, out_features=512, bias=True)
                  )
                  (ln_2): LayerNorm((512,), eps=1e-05, elementwise_affine=True)
                )
                (2): ResidualAttentionBlock(
                  (attn): MultiheadAttention(
                    (out_proj): NonDynamicallyQuantizableLinear(in_features=512, out_features=512, bias=True)
                  )
                  (ln_1): LayerNorm((512,), eps=1e-05, elementwise_affine=True)
                  (mlp): Sequential(
                    (c_fc): Linear(in_features=512, out_features=2048, bias=True)
                    (gelu): QuickGELU()
                    (c_proj): Linear(in_features=2048, out_features=512, bias=True)
                  )
                  (ln_2): LayerNorm((512,), eps=1e-05, elementwise_affine=True)
                )
                (3): ResidualAttentionBlock(
                  (attn): MultiheadAttention(
                    (out_proj): NonDynamicallyQuantizableLinear(in_features=512, out_features=512, bias=True)
                  )
                  (ln_1): LayerNorm((512,), eps=1e-05, elementwise_affine=True)
                  (mlp): Sequential(
                    (c_fc): Linear(in_features=512, out_features=2048, bias=True)
                    (gelu): QuickGELU()
                    (c_proj): Linear(in_features=2048, out_features=512, bias=True)
                  )
                  (ln_2): LayerNorm((512,), eps=1e-05, elementwise_affine=True)
                )
                (4): ResidualAttentionBlock(
                  (attn): MultiheadAttention(
                    (out_proj): NonDynamicallyQuantizableLinear(in_features=512, out_features=512, bias=True)
                  )
                  (ln_1): LayerNorm((512,), eps=1e-05, elementwise_affine=True)
                  (mlp): Sequential(
                    (c_fc): Linear(in_features=512, out_features=2048, bias=True)
                    (gelu): QuickGELU()
                    (c_proj): Linear(in_features=2048, out_features=512, bias=True)
                  )
                  (ln_2): LayerNorm((512,), eps=1e-05, elementwise_affine=True)
                )
                (5): ResidualAttentionBlock(
                  (attn): MultiheadAttention(
                    (out_proj): NonDynamicallyQuantizableLinear(in_features=512, out_features=512, bias=True)
                  )
                  (ln_1): LayerNorm((512,), eps=1e-05, elementwise_affine=True)
                  (mlp): Sequential(
                    (c_fc): Linear(in_features=512, out_features=2048, bias=True)
                    (gelu): QuickGELU()
                    (c_proj): Linear(in_features=2048, out_features=512, bias=True)
                  )
                  (ln_2): LayerNorm((512,), eps=1e-05, elementwise_affine=True)
                )
                (6): ResidualAttentionBlock(
                  (attn): MultiheadAttention(
                    (out_proj): NonDynamicallyQuantizableLinear(in_features=512, out_features=512, bias=True)
                  )
                  (ln_1): LayerNorm((512,), eps=1e-05, elementwise_affine=True)
                  (mlp): Sequential(
                    (c_fc): Linear(in_features=512, out_features=2048, bias=True)
                    (gelu): QuickGELU()
                    (c_proj): Linear(in_features=2048, out_features=512, bias=True)
                  )
                  (ln_2): LayerNorm((512,), eps=1e-05, elementwise_affine=True)
                )
                (7): ResidualAttentionBlock(
                  (attn): MultiheadAttention(
                    (out_proj): NonDynamicallyQuantizableLinear(in_features=512, out_features=512, bias=True)
                  )
                  (ln_1): LayerNorm((512,), eps=1e-05, elementwise_affine=True)
                  (mlp): Sequential(
                    (c_fc): Linear(in_features=512, out_features=2048, bias=True)
                    (gelu): QuickGELU()
                    (c_proj): Linear(in_features=2048, out_features=512, bias=True)
                  )
                  (ln_2): LayerNorm((512,), eps=1e-05, elementwise_affine=True)
                )
                (8): ResidualAttentionBlock(
                  (attn): MultiheadAttention(
                    (out_proj): NonDynamicallyQuantizableLinear(in_features=512, out_features=512, bias=True)
                  )
                  (ln_1): LayerNorm((512,), eps=1e-05, elementwise_affine=True)
                  (mlp): Sequential(
                    (c_fc): Linear(in_features=512, out_features=2048, bias=True)
                    (gelu): QuickGELU()
                    (c_proj): Linear(in_features=2048, out_features=512, bias=True)
                  )
                  (ln_2): LayerNorm((512,), eps=1e-05, elementwise_affine=True)
                )
                (9): ResidualAttentionBlock(
                  (attn): MultiheadAttention(
                    (out_proj): NonDynamicallyQuantizableLinear(in_features=512, out_features=512, bias=True)
                  )
                  (ln_1): LayerNorm((512,), eps=1e-05, elementwise_affine=True)
                  (mlp): Sequential(
                    (c_fc): Linear(in_features=512, out_features=2048, bias=True)
                    (gelu): QuickGELU()
                    (c_proj): Linear(in_features=2048, out_features=512, bias=True)
                  )
                  (ln_2): LayerNorm((512,), eps=1e-05, elementwise_affine=True)
                )
                (10): ResidualAttentionBlock(
                  (attn): MultiheadAttention(
                    (out_proj): NonDynamicallyQuantizableLinear(in_features=512, out_features=512, bias=True)
                  )
                  (ln_1): LayerNorm((512,), eps=1e-05, elementwise_affine=True)
                  (mlp): Sequential(
                    (c_fc): Linear(in_features=512, out_features=2048, bias=True)
                    (gelu): QuickGELU()
                    (c_proj): Linear(in_features=2048, out_features=512, bias=True)
                  )
                  (ln_2): LayerNorm((512,), eps=1e-05, elementwise_affine=True)
                )
                (11): ResidualAttentionBlock(
                  (attn): MultiheadAttention(
                    (out_proj): NonDynamicallyQuantizableLinear(in_features=512, out_features=512, bias=True)
                  )
                  (ln_1): LayerNorm((512,), eps=1e-05, elementwise_affine=True)
                  (mlp): Sequential(
                    (c_fc): Linear(in_features=512, out_features=2048, bias=True)
                    (gelu): QuickGELU()
                    (c_proj): Linear(in_features=2048, out_features=512, bias=True)
                  )
                  (ln_2): LayerNorm((512,), eps=1e-05, elementwise_affine=True)
                )
              )
            )
            (token_embedding): Embedding(49408, 512)
            (ln_final): LayerNorm((512,), eps=1e-05, elementwise_affine=True)
          )
        )
        (text_encoder): TextEncoder(
          (transformer): Transformer(
            (resblocks): Sequential(
              (0): ResidualAttentionBlock(
                (attn): MultiheadAttention(
                  (out_proj): NonDynamicallyQuantizableLinear(in_features=512, out_features=512, bias=True)
                )
                (ln_1): LayerNorm((512,), eps=1e-05, elementwise_affine=True)
                (mlp): Sequential(
                  (c_fc): Linear(in_features=512, out_features=2048, bias=True)
                  (gelu): QuickGELU()
                  (c_proj): Linear(in_features=2048, out_features=512, bias=True)
                )
                (ln_2): LayerNorm((512,), eps=1e-05, elementwise_affine=True)
              )
              (1): ResidualAttentionBlock(
                (attn): MultiheadAttention(
                  (out_proj): NonDynamicallyQuantizableLinear(in_features=512, out_features=512, bias=True)
                )
                (ln_1): LayerNorm((512,), eps=1e-05, elementwise_affine=True)
                (mlp): Sequential(
                  (c_fc): Linear(in_features=512, out_features=2048, bias=True)
                  (gelu): QuickGELU()
                  (c_proj): Linear(in_features=2048, out_features=512, bias=True)
                )
                (ln_2): LayerNorm((512,), eps=1e-05, elementwise_affine=True)
              )
              (2): ResidualAttentionBlock(
                (attn): MultiheadAttention(
                  (out_proj): NonDynamicallyQuantizableLinear(in_features=512, out_features=512, bias=True)
                )
                (ln_1): LayerNorm((512,), eps=1e-05, elementwise_affine=True)
                (mlp): Sequential(
                  (c_fc): Linear(in_features=512, out_features=2048, bias=True)
                  (gelu): QuickGELU()
                  (c_proj): Linear(in_features=2048, out_features=512, bias=True)
                )
                (ln_2): LayerNorm((512,), eps=1e-05, elementwise_affine=True)
              )
              (3): ResidualAttentionBlock(
                (attn): MultiheadAttention(
                  (out_proj): NonDynamicallyQuantizableLinear(in_features=512, out_features=512, bias=True)
                )
                (ln_1): LayerNorm((512,), eps=1e-05, elementwise_affine=True)
                (mlp): Sequential(
                  (c_fc): Linear(in_features=512, out_features=2048, bias=True)
                  (gelu): QuickGELU()
                  (c_proj): Linear(in_features=2048, out_features=512, bias=True)
                )
                (ln_2): LayerNorm((512,), eps=1e-05, elementwise_affine=True)
              )
              (4): ResidualAttentionBlock(
                (attn): MultiheadAttention(
                  (out_proj): NonDynamicallyQuantizableLinear(in_features=512, out_features=512, bias=True)
                )
                (ln_1): LayerNorm((512,), eps=1e-05, elementwise_affine=True)
                (mlp): Sequential(
                  (c_fc): Linear(in_features=512, out_features=2048, bias=True)
                  (gelu): QuickGELU()
                  (c_proj): Linear(in_features=2048, out_features=512, bias=True)
                )
                (ln_2): LayerNorm((512,), eps=1e-05, elementwise_affine=True)
              )
              (5): ResidualAttentionBlock(
                (attn): MultiheadAttention(
                  (out_proj): NonDynamicallyQuantizableLinear(in_features=512, out_features=512, bias=True)
                )
                (ln_1): LayerNorm((512,), eps=1e-05, elementwise_affine=True)
                (mlp): Sequential(
                  (c_fc): Linear(in_features=512, out_features=2048, bias=True)
                  (gelu): QuickGELU()
                  (c_proj): Linear(in_features=2048, out_features=512, bias=True)
                )
                (ln_2): LayerNorm((512,), eps=1e-05, elementwise_affine=True)
              )
              (6): ResidualAttentionBlock(
                (attn): MultiheadAttention(
                  (out_proj): NonDynamicallyQuantizableLinear(in_features=512, out_features=512, bias=True)
                )
                (ln_1): LayerNorm((512,), eps=1e-05, elementwise_affine=True)
                (mlp): Sequential(
                  (c_fc): Linear(in_features=512, out_features=2048, bias=True)
                  (gelu): QuickGELU()
                  (c_proj): Linear(in_features=2048, out_features=512, bias=True)
                )
                (ln_2): LayerNorm((512,), eps=1e-05, elementwise_affine=True)
              )
              (7): ResidualAttentionBlock(
                (attn): MultiheadAttention(
                  (out_proj): NonDynamicallyQuantizableLinear(in_features=512, out_features=512, bias=True)
                )
                (ln_1): LayerNorm((512,), eps=1e-05, elementwise_affine=True)
                (mlp): Sequential(
                  (c_fc): Linear(in_features=512, out_features=2048, bias=True)
                  (gelu): QuickGELU()
                  (c_proj): Linear(in_features=2048, out_features=512, bias=True)
                )
                (ln_2): LayerNorm((512,), eps=1e-05, elementwise_affine=True)
              )
              (8): ResidualAttentionBlock(
                (attn): MultiheadAttention(
                  (out_proj): NonDynamicallyQuantizableLinear(in_features=512, out_features=512, bias=True)
                )
                (ln_1): LayerNorm((512,), eps=1e-05, elementwise_affine=True)
                (mlp): Sequential(
                  (c_fc): Linear(in_features=512, out_features=2048, bias=True)
                  (gelu): QuickGELU()
                  (c_proj): Linear(in_features=2048, out_features=512, bias=True)
                )
                (ln_2): LayerNorm((512,), eps=1e-05, elementwise_affine=True)
              )
              (9): ResidualAttentionBlock(
                (attn): MultiheadAttention(
                  (out_proj): NonDynamicallyQuantizableLinear(in_features=512, out_features=512, bias=True)
                )
                (ln_1): LayerNorm((512,), eps=1e-05, elementwise_affine=True)
                (mlp): Sequential(
                  (c_fc): Linear(in_features=512, out_features=2048, bias=True)
                  (gelu): QuickGELU()
                  (c_proj): Linear(in_features=2048, out_features=512, bias=True)
                )
                (ln_2): LayerNorm((512,), eps=1e-05, elementwise_affine=True)
              )
              (10): ResidualAttentionBlock(
                (attn): MultiheadAttention(
                  (out_proj): NonDynamicallyQuantizableLinear(in_features=512, out_features=512, bias=True)
                )
                (ln_1): LayerNorm((512,), eps=1e-05, elementwise_affine=True)
                (mlp): Sequential(
                  (c_fc): Linear(in_features=512, out_features=2048, bias=True)
                  (gelu): QuickGELU()
                  (c_proj): Linear(in_features=2048, out_features=512, bias=True)
                )
                (ln_2): LayerNorm((512,), eps=1e-05, elementwise_affine=True)
              )
              (11): ResidualAttentionBlock(
                (attn): MultiheadAttention(
                  (out_proj): NonDynamicallyQuantizableLinear(in_features=512, out_features=512, bias=True)
                )
                (ln_1): LayerNorm((512,), eps=1e-05, elementwise_affine=True)
                (mlp): Sequential(
                  (c_fc): Linear(in_features=512, out_features=2048, bias=True)
                  (gelu): QuickGELU()
                  (c_proj): Linear(in_features=2048, out_features=512, bias=True)
                )
                (ln_2): LayerNorm((512,), eps=1e-05, elementwise_affine=True)
              )
            )
          )
          (ln_final): LayerNorm((512,), eps=1e-05, elementwise_affine=True)
        )
      )
      (mse): MSELoss()
      (cls_score): Linear(in_features=1024, out_features=8, bias=False)
      (cls_bg_score): Linear(in_features=1024, out_features=1, bias=False)
      (bbox_pred): Linear(in_features=1024, out_features=4, bias=True)
    )
  )
  (Discriminator): DAFeatDiscriminator(
    (relu2): LeakyReLU(negative_slope=0.1)
    (sigmoid): Sigmoid()
    (cls_domain): ModuleList(
      (0): Conv2d(1024, 1024, kernel_size=(1, 1), stride=(1, 1))
      (1): Conv2d(1024, 512, kernel_size=(1, 1), stride=(1, 1))
      (2): Conv2d(512, 1, kernel_size=(1, 1), stride=(1, 1))
    )
    (norm): ModuleList(
      (0): GroupNorm(32, 1024, eps=1e-05, affine=True)
      (1): GroupNorm(32, 512, eps=1e-05, affine=True)
      (2): BatchNorm2d(1, eps=1e-05, momentum=0.1, affine=True, track_running_stats=True)
    )
    (mse): MSELoss()
  )
)
[09/07 11:53:13 fvcore.common.checkpoint]: [Checkpointer] Loading from ./output/model_55.5mAP.pth ...
WARNING [09/07 11:53:20 fvcore.common.checkpoint]: Some model parameters or buffers are not found in the checkpoint:
backbone.lora_layer1.0.bn1.{bias, weight}
backbone.lora_layer1.0.bn2.{bias, weight}
…
